
batch_size: 32
epochs: 8
spec_repr: c
data_path: f:/newrepos/olitunes/backend/models/tab-cnn/data/spec_repr/
con_win_size: 9
id_file: f:/newrepos/olitunes/backend/models/tab-cnn/data/id.csv
Model: "sequential"
┏━━━━━━━━━━━━━━━━━━━━━━━━━━━━━━━━━━━━━━┳━━━━━━━━━━━━━━━━━━━━━━━━━━━━━┳━━━━━━━━━━━━━━━━━┓
┃ Layer (type)                         ┃ Output Shape                ┃         Param # ┃
┡━━━━━━━━━━━━━━━━━━━━━━━━━━━━━━━━━━━━━━╇━━━━━━━━━━━━━━━━━━━━━━━━━━━━━╇━━━━━━━━━━━━━━━━━┩
│ conv2d (Conv2D)                      │ (None, 192, 9, 32)          │             320 │
├──────────────────────────────────────┼─────────────────────────────┼─────────────────┤
│ batch_normalization                  │ (None, 192, 9, 32)          │             128 │
│ (BatchNormalization)                 │                             │                 │
├──────────────────────────────────────┼─────────────────────────────┼─────────────────┤
│ spatial_dropout2d (SpatialDropout2D) │ (None, 192, 9, 32)          │               0 │
├──────────────────────────────────────┼─────────────────────────────┼─────────────────┤
│ conv2d_1 (Conv2D)                    │ (None, 192, 9, 64)          │          18,496 │
├──────────────────────────────────────┼─────────────────────────────┼─────────────────┤
│ max_pooling2d (MaxPooling2D)         │ (None, 96, 4, 64)           │               0 │
├──────────────────────────────────────┼─────────────────────────────┼─────────────────┤
│ batch_normalization_1                │ (None, 96, 4, 64)           │             256 │
│ (BatchNormalization)                 │                             │                 │
├──────────────────────────────────────┼─────────────────────────────┼─────────────────┤
│ spatial_dropout2d_1                  │ (None, 96, 4, 64)           │               0 │
│ (SpatialDropout2D)                   │                             │                 │
├──────────────────────────────────────┼─────────────────────────────┼─────────────────┤
│ conv2d_2 (Conv2D)                    │ (None, 96, 4, 128)          │          73,856 │
├──────────────────────────────────────┼─────────────────────────────┼─────────────────┤
│ max_pooling2d_1 (MaxPooling2D)       │ (None, 48, 2, 128)          │               0 │
├──────────────────────────────────────┼─────────────────────────────┼─────────────────┤
│ batch_normalization_2                │ (None, 48, 2, 128)          │             512 │
│ (BatchNormalization)                 │                             │                 │
├──────────────────────────────────────┼─────────────────────────────┼─────────────────┤
│ flatten (Flatten)                    │ (None, 12288)               │               0 │
├──────────────────────────────────────┼─────────────────────────────┼─────────────────┤
│ dense (Dense)                        │ (None, 512)                 │       6,291,968 │
├──────────────────────────────────────┼─────────────────────────────┼─────────────────┤
│ dropout (Dropout)                    │ (None, 512)                 │               0 │
├──────────────────────────────────────┼─────────────────────────────┼─────────────────┤
│ dense_1 (Dense)                      │ (None, 256)                 │         131,328 │
├──────────────────────────────────────┼─────────────────────────────┼─────────────────┤
│ dropout_1 (Dropout)                  │ (None, 256)                 │               0 │
├──────────────────────────────────────┼─────────────────────────────┼─────────────────┤
│ lambda (Lambda)                      │ (None, 256)                 │               0 │
├──────────────────────────────────────┼─────────────────────────────┼─────────────────┤
│ string0 (Dense)                      │ (None, 21)                  │           5,397 │
├──────────────────────────────────────┼─────────────────────────────┼─────────────────┤
│ lambda_1 (Lambda)                    │ (None, 21)                  │               0 │
├──────────────────────────────────────┼─────────────────────────────┼─────────────────┤
│ string1 (Dense)                      │ (None, 21)                  │             462 │
├──────────────────────────────────────┼─────────────────────────────┼─────────────────┤
│ lambda_2 (Lambda)                    │ (None, 21)                  │               0 │
├──────────────────────────────────────┼─────────────────────────────┼─────────────────┤
│ string2 (Dense)                      │ (None, 21)                  │             462 │
├──────────────────────────────────────┼─────────────────────────────┼─────────────────┤
│ lambda_3 (Lambda)                    │ (None, 21)                  │               0 │
├──────────────────────────────────────┼─────────────────────────────┼─────────────────┤
│ string3 (Dense)                      │ (None, 21)                  │             462 │
├──────────────────────────────────────┼─────────────────────────────┼─────────────────┤
│ lambda_4 (Lambda)                    │ (None, 21)                  │               0 │
├──────────────────────────────────────┼─────────────────────────────┼─────────────────┤
│ string4 (Dense)                      │ (None, 21)                  │             462 │
├──────────────────────────────────────┼─────────────────────────────┼─────────────────┤
│ lambda_5 (Lambda)                    │ (None, 21)                  │               0 │
├──────────────────────────────────────┼─────────────────────────────┼─────────────────┤
│ string5 (Dense)                      │ (None, 21)                  │             462 │
└──────────────────────────────────────┴─────────────────────────────┴─────────────────┘
 Total params: 6,524,571 (24.89 MB)
 Trainable params: 6,524,123 (24.89 MB)
 Non-trainable params: 448 (1.75 KB)

